deployment/trained_model/model/model.pth (torch, 37369 bytes, 34 tensors)

embedding.operation_embed.weight f4 [66, 4]
0	0xbdb9ec7a	-0.090783074
1	0xbece9b6d	-0.40352955
2	0x3e07b22d	0.13251562
3	0xbf3769f7	-0.71646065
4	0x3d33670e	0.043799452
5	0x3f0b0a2f	0.54312414
6	0xbd4690e5	-0.048478026
7	0xbec280df	-0.37988946
8	0xbf894ed5	-1.0727183
9	0x3e32702d	0.17425604
10	0xc021e954	-2.5298662
11	0x3f243ae0	0.64152336
12	0xbf513c38	-0.8173251
13	0xbf776b2d	-0.9664791
14	0x3ea56b0d	0.32308236
15	0xbf4abe94	-0.7919705
16	0x3f395d74	0.72408223
17	0x3eb1da0f	0.34736678
18	0xbf113bbd	-0.5673178
19	0xbfa1e41c	-1.2647738
20	0x3e708f73	0.23492222
21	0x3ecbd00e	0.3980717
22	0xbea04bb4	-0.31307757
23	0xbf141f75	-0.578605
24	0xbe0df826	-0.13864192
25	0xbf97cd14	-1.185946
26	0x3e379c5a	0.17930737
27	0x3e4ce85b	0.20010512
28	0xbfe6b80b	-1.8024915
29	0x3e89fbf7	0.26950046
30	0xbf72b968	-0.9481416
31	0x3f801869	1.0007449
32	0xbfde66d6	-1.7375133
33	0x3f0dfebf	0.55466837
34	0xbea00389	-0.31252697
35	0xbfcb4840	-1.5881424
36	0xbf3b8787	-0.73253673
37	0xbebfceba	-0.37462407
38	0xbfeaffdd	-1.8359333
39	0x3f046d30	0.51729107
40	0x3f4322ad	0.76224786
41	0x3bd021c3	0.006351681
42	0xbe82955c	-0.25504577
43	0xbf70a04e	-0.93994606
44	0x3fb65e45	1.4247519
45	0xbf16d767	-0.5892243
46	0x3fd64ada	1.6741593
47	0xbf45174f	-0.7698869
48	0x3f573d24	0.8407767
49	0xbebcfc5c	-0.36911285
50	0xbf7304f3	-0.94929427
51	0xc00c2897	-2.1899774
52	0xbfb6f878	-1.4294577
53	0xbcfe7ee0	-0.031066358
54	0xbf22898e	-0.6349114
55	0x3de84252	0.113407746
56	0x3fce2e36	1.6107852
57	0x3ff9522e	1.9478204
58	0xbfafa942	-1.3723528
59	0x40beabb1	5.9584584
60	0xbdd0d7ee	-0.10197435
61	0xbf89055a	-1.0704758
62	0xbf8e82f5	-1.1133715
63	0x3e9526d2	0.2913118
64	0x3ef6478e	0.48101467
65	0x3e86793b	0.26264367
66	0x3ea47e7a	0.32127744
67	0xbea8f414	-0.32998717
68	0x3f7833ad	0.9695385
69	0xbf08e6da	-0.5347725
70	0x3f28b94f	0.6590776
71	0xbe778952	-0.24173477
72	0xbe4930e3	-0.19647555
73	0xbef1bf2f	-0.47216174
74	0xbfa09383	-1.2545017
75	0x3ef1bd6f	0.4721484
76	0x3f245927	0.64198536
77	0xbc8b0882	-0.01697183
78	0xbe995d72	-0.29954106
79	0xbe89f6e4	-0.26946175
80	0xbd630b1b	-0.055430513
81	0xbf0ae6a9	-0.5425821
82	0x3ebb8416	0.3662421
83	0xbfbdb679	-1.4821311
84	0x3eb33f73	0.35009345
85	0x3e6e26f9	0.23257054
86	0xbe4e76b4	-0.20162469
87	0x3e29b6bb	0.16573612
88	0x3f4c7a6a	0.7987429
89	0xbfe80873	-1.8127578
90	0xbe9fc0b4	-0.31201708
91	0xbead652c	-0.3386625
92	0xbf25fbe5	-0.64837486
93	0x3fb0468c	1.3771529
94	0xbff0159f	-1.8756598
95	0x3faa48a8	1.3303423
96	0x3f19b04d	0.6003464
97	0x3fa56a62	1.292309
98	0xbe220a71	-0.15824296
99	0xbe48f162	-0.1962333
100	0x3ec29abe	0.38008684
101	0x3ecb9e26	0.39769095
102	0xbf4ac657	-0.7920889
103	0x3d9d3004	0.07675174
104	0xbf02d023	-0.5109884
105	0xbf52d3a2	-0.82354176
106	0xbf6be0dd	-0.9213999
107	0x3fdfe902	1.7492983
108	0x3eee0e86	0.46495456
109	0x3d594f20	0.053053975
110	0xbc9c296d	-0.019062722
111	0x3f38a54a	0.7212721
112	0x3f025e15	0.5092481
113	0xbfbdcafc	-1.4827571
114	0x40209541	2.5091097
115	0x400dd8b1	2.2163508
116	0xbf14497d	-0.57924634
117	0x3e048a82	0.12943462
118	0x3ef71425	0.48257557
119	0xbe9ed092	-0.31018502
120	0x3dcc609f	0.099793665
121	0xbf16f9d3	-0.5897495
122	0xbf4db6a9	-0.8035684
123	0x3f734aff	0.9503631
124	0x3f0f792a	0.56044257
125	0xbef328c9	-0.47492054
126	0x3f3cd820	0.7376728
127	0x3ec9b60f	0.39396712
128	0xbe1821b1	-0.14856602
129	0x3f110c43	0.56659335
130	0xc046c463	-3.1057365
131	0x3ec2c21d	0.38038722
132	0x3fa9e305	1.3272406
133	0x3c798851	0.015230254
134	0xbf150382	-0.5820848
135	0xbfcf4ccd	-1.6195313
136	0xbfae7ada	-1.3631241
137	0x3f4642ec	0.77445865
138	0xbf0ec525	-0.5576957
139	0xbd9179de	-0.071033224
140	0xbe55e3ec	-0.20887727
141	0xbf1917e9	-0.5980211
142	0x3f9c7fdd	1.2226521
143	0x3eaac2aa	0.33351642
144	0xbf3309d1	-0.69936854
145	0xbe6edf09	-0.23327269
146	0x3eee8b65	0.46590725
147	0xbfbf7876	-1.4958637
148	0xbf0d1414	-0.5510876
149	0xbf74b156	-0.95583093
150	0x3f993498	1.1969175
151	0x3f09692f	0.5367612
152	0xbf991d9f	-1.1962165
153	0xbef9f047	-0.4881613
154	0x3f613e47	0.8798565
155	0xbff1e0dd	-1.8896748
156	0xbdd3507d	-0.10318086
157	0xbf9d612c	-1.229528
158	0x3e21d733	0.15804748
159	0xbff7531f	-1.9322242
160	0xbedf2dad	-0.43589535
161	0xbf380200	-0.7187805
162	0xbf3156a6	-0.6927284
163	0x3f54cd29	0.8312555
164	0xbf32f434	-0.69903874
165	0xbef847d4	-0.484923
166	0x3f8fab33	1.1224121
167	0x3f83981f	1.0280799
168	0xbfc7e149	-1.5615627
169	0xbf890d05	-1.0707098
170	0x3f7f9782	0.9984056
171	0x3f122173	0.5708229
172	0xbc61f074	-0.013790239
173	0xbe6b77b5	-0.22994883
174	0xbf0617f9	-0.5238033
175	0xbc845e76	-0.016158324
176	0x3dbadf48	0.09124619
177	0xbf09531f	-0.5364246
178	0xbf01dfab	-0.50731915
179	0xbf1a47e1	-0.6026593
180	0x3e8e62f6	0.27809876
181	0xbe6f09e1	-0.23343612
182	0xbf0bea37	-0.5465426
183	0x3f37f72c	0.7186153
184	0x3f16027d	0.58597547
185	0x3e3842dd	0.17994256
186	0xbe63c52e	-0.22243187
187	0x3f332854	0.6998341
188	0xbd4add31	-0.04952735
189	0x3fdb312c	1.7124381
190	0xbf4e91de	-0.80691326
191	0x3f92743e	1.1441724
192	0xbf254924	-0.6456473
193	0x3eff9e50	0.4992547
194	0xbe63300e	-0.221863
195	0x3fac4080	1.3457184
196	0x3f90ff71	1.1327955
197	0x3efc1ba6	0.49239844
198	0x3e37caf7	0.17948519
199	0xbf2b856d	-0.67000467
200	0x3f17a02d	0.59228784
201	0xbf189d2f	-0.59614843
202	0x3fa282b4	1.2696137
203	0xbf545a93	-0.82950705
204	0xbc69720d	-0.014248383
205	0xbf3f4295	-0.7471097
206	0xbf435109	-0.76295525
207	0xbfca0071	-1.5781385
208	0x3e41cc94	0.18925697
209	0xbf6520a2	-0.8950292
210	0xbf81bd9f	-1.0135993
211	0xbf1bb2b4	-0.60819554
212	0xbf3a0ed6	-0.7267889
213	0x3f0bdc95	0.54633456
214	0xbaa85bec	-0.0012844778
215	0xbd88a526	-0.066721246
216	0x3f35ddcd	0.71041566
217	0xbefdff36	-0.49608773
218	0x3f678eb4	0.9045212
219	0xbf17e8fd	-0.59339887
220	0x3f3ca9f6	0.7369684
221	0x3fa3352c	1.2750602
222	0xbdb87462	-0.09006573
223	0xbe561a45	-0.20908459
224	0x3ed58ec4	0.41710484
225	0xbe8443c2	-0.25832945
226	0x3e30d7eb	0.17269866
227	0x40292b04	2.6432505
228	0x3e1a9274	0.1509493
229	0xbe0dc2c6	-0.13843831
230	0x3f55a72f	0.83458227
231	0x3d6a54bc	0.057209715
232	0x3e87cf79	0.26525477
233	0xc00ac18d	-2.1680634
234	0xbf94933b	-1.1607431
235	0x3f58ccf0	0.8468771
236	0xbf894613	-1.072451
237	0xbf6a61b9	-0.9155536
238	0xc00add00	-2.1697388
239	0x3fc4ffa8	1.539052
240	0xbe36b600	-0.17842865
241	0x3efc30d4	0.49256003
242	0x3d1d785c	0.03844486
243	0x3c2528d4	0.010080535
244	0xbe97c9a1	-0.29646018
245	0x3ef85804	0.4850465
246	0xbeeb2a77	-0.45930836
247	0xbf11bcac	-0.56928515
248	0xbf1db14c	-0.6159866
249	0x3f43129e	0.7620028
250	0x3f7372dd	0.9509714
251	0xbeece51c	-0.46268547
252	0xbe392c28	-0.1808325
253	0x3e934ed7	0.28771088
254	0xbf31f096	-0.6950773
255	0x3f93f3fd	1.1558834

embedding.service_embed.weight f4 [13, 4]
0	0xbe768eb4	-0.24077874
1	0xbff51211	-1.9146138
2	0x3c140074	0.009033311
3	0xbef451e0	-0.47718716
4	0xbf8e2291	-1.1104299
5	0xbf90c100	-1.1308899
6	0x3f2822e9	0.6567827
7	0xbf8022a1	-1.0010568
8	0xbf429b79	-0.7601848
9	0x3e51ee4c	0.2050106
10	0x3f978f29	1.1840564
11	0x3f8f0c48	1.1175623
12	0x3ed47666	0.4149658
13	0xc0112a75	-2.2682164
14	0x3da2d57c	0.07950875
15	0x3f95c69e	1.1701238
16	0xbfacd3d4	-1.3502145
17	0x3e4d0af8	0.20023715
18	0xbde789e7	-0.113056
19	0xbfb18f30	-1.3871822
20	0xbf900a24	-1.1253095
21	0xbf0dca85	-0.55387145
22	0xbf111541	-0.56673056
23	0xc01dd31c	-2.46601
24	0x3ead3f25	0.33837238
25	0xbf83a8b9	-1.0285865
26	0xbfedc033	-1.857428
27	0x3fab5ac1	1.3387071
28	0xbf6033d3	-0.8757908
29	0xbe84879b	-0.2588471
30	0x3fecd615	1.8502833
31	0x3ea1d8e1	0.31610778
32	0xbf90e67d	-1.132034
33	0x3f968ac0	1.1761093
34	0xbd9400ad	-0.072266914
35	0xbef26834	-0.47345126
36	0x3f43d4c3	0.76496524
37	0xbe3dc8da	-0.1853365
38	0xbde07028	-0.10958892
39	0xbf22cc05	-0.6359256
40	0xbf7ec2b9	-0.99515873
41	0xbff07e1d	-1.8788487
42	0x3f24d1b6	0.64382493
43	0xbef0985e	-0.46991247
44	0xbe5372e6	-0.20649299
45	0xbf555b01	-0.83341986
46	0xbf9c3337	-1.220313
47	0xbaf27001	-0.0018496515
48	0xc05f3a7a	-3.4879441
49	0x400777fe	2.1166987
50	0xbef7e1d2	-0.48414475
51	0x3ef7369b	0.48283848

embedding.status_embed.weight f4 [4, 4]
0	0xbecc4c99	-0.3990219
1	0xbf4d1435	-0.8010896
2	0xbedf9dc8	-0.43675065
3	0xbfb16227	-1.3858079
4	0xbf9118d3	-1.1335701
5	0xbee6ca13	-0.45076045
6	0xbf0a1adb	-0.5394723
7	0xbebe1245	-0.37123314
8	0x3ebf19f4	0.37324488
9	0xbf0c5e7a	-0.5483166
10	0xbe07facb	-0.13279264
11	0xbf122696	-0.5709013
12	0x3fb6c4ef	1.4278849
13	0xbf3b18f4	-0.7308495
14	0x3f783142	0.9695016
15	0x3f0171c8	0.5056424

encoder.tree_lstm.cell.b_iou f4 [1, 1, 36]
0	0xb90646a3	-0.0001280555
1	0x3d7fb1f7	0.06242558
2	0x3e3ca6a6	0.18422946
3	0x3e574daa	0.2102572
4	0x3e857d8d	0.2607235
5	0x3eaaac6a	0.33334666
6	0x3e2667c1	0.16250516
7	0x3e9b59bf	0.30341908
8	0x3e496a8f	0.19669555
9	0x3e301753	0.17196397
10	0x3d60feb2	0.054930396
11	0x3d59e2c9	0.053194795
12	0x3dbeb4f4	0.09311858
13	0x3e64cf91	0.22344805
14	0x3e497157	0.19672142
15	0x3e55352f	0.20821069
16	0x3e7e8d39	0.2485856
17	0x3e9977ed	0.2997431
18	0x3e581ad4	0.21103984
19	0x3e772b12	0.24137524
20	0x3e16bdcc	0.1472084
21	0x3e48e3cc	0.19618148
22	0x3b86faf2	0.0041192705
23	0x3e117f90	0.14208817
24	0xb9ecb868	-0.0004515082
25	0x3ce8a68d	0.02839973
26	0x3d6eb8f4	0.058281854
27	0xbd629844	-0.055320993
28	0xbdaa8fc3	-0.083282016
29	0x3ba497e2	0.0050229887
30	0x3c49ee82	0.012324931
31	0x3da7b028	0.08187896
32	0xbb2193d1	-0.0024654756
33	0x3dbc298b	0.09187611
34	0x3de07a93	0.10960879
35	0x3dba8407	0.091072135

encoder.tree_lstm.cell.W_iouf.weight f4 [48, 12]
0	0xbf0f5609	-0.55990654
1	0x3e8eb67c	0.278736
2	0x3e2165a2	0.15761426
3	0xbe7bbd66	-0.24583969
4	0xbd05f19b	-0.032701116
5	0x3e61c697	0.22048412
6	0x3e42819a	0.18994752
7	0x3f503a49	0.81338936
8	0x3e6586b4	0.22414666
9	0xbe4107f1	-0.18850686
10	0xbe57d0f6	-0.21075806
11	0x3d8d34db	0.06894847
12	0x3ea34dc9	0.31895283
13	0x3f001a9e	0.50040615
14	0xbe8b2994	-0.2718016
15	0x3f0f95f8	0.5608821
16	0xbea94d69	-0.33066872
17	0x3de8e294	0.11371341
18	0xbd0f060b	-0.034917872
19	0x3ba2c8c6	0.0049677817
20	0x3e67a203	0.22620396
21	0x3e14a958	0.14517725
22	0x3e17caff	0.1482353
23	0x3e1bb05e	0.15203997
24	0x3f2effec	0.68359256
25	0xbe473158	-0.19452417
26	0x3e9cdb02	0.3063584
27	0xbdfad3ce	-0.1224743
28	0x3de055c4	0.109538585
29	0xbf194500	-0.5987091
30	0xbea8cfb8	-0.32970977
31	0xbd0c06df	-0.03418624
32	0xbe733f06	-0.2375451
33	0xbe81c1c2	-0.25343138
34	0xbecf14bd	-0.4044551
35	0xbe350113	-0.17676191
36	0x3d85c207	0.065311484
37	0xbe9b3d52	-0.3032022
38	0x3d01f788	0.031730205
39	0x3e6ec0e4	0.2331577
40	0xbed444c5	-0.41458717
41	0x3e39189c	0.18075794
42	0xbe065db8	-0.13121688
43	0x3e41f02b	0.18939273
44	0xbe26a246	-0.1627284
45	0xbe797bbb	-0.24363606
46	0xbe4efe33	-0.20214157
47	0x3c918690	0.01776436
48	0xbd81146c	-0.06302723
49	0xbe542a69	-0.20719303
50	0x3db853a1	0.09000326
51	0xbf18f628	-0.59750605
52	0xbe99406a	-0.29931957
53	0xbe2c65eb	-0.16835754
54	0xbeab2392	-0.33425575
55	0x3e53a39b	0.2066788
56	0xbe9fbcdc	-0.31198776
57	0xbe2424fb	-0.16029732
58	0xbe03de1b	-0.12877695
59	0xbe9928e1	-0.29914
60	0xbf0821d7	-0.53176636
61	0x3ca1e538	0.01976262
62	0xbe206445	-0.1566325
63	0x3e78ee80	0.2430973
64	0xbef9fe01	-0.48826602
65	0x3e0e2d1b	0.13884394
66	0x3d6bdb71	0.057582323
67	0xbcb92147	-0.022598876
68	0xbed1c576	-0.40970963
69	0xbdf0a358	-0.11749905
70	0xbeedd18e	-0.4644894
71	0xbec85606	-0.3912813
72	0x3f4bd752	0.7962543
73	0xbe6df291	-0.23237063
74	0x3b8d022f	0.004303239
75	0xbb4166a6	-0.0029510646
76	0xbe0a85bb	-0.13527577
77	0xbe4928c1	-0.19644453
78	0x3dae683f	0.08515977
79	0xbec41ccf	-0.3830323
80	0xbed3e98d	-0.41389123
81	0xbe62b9c3	-0.22141175
82	0xbe250021	-0.1611333
83	0xbec9cb52	-0.39412934
84	0xbf44188e	-0.7659997
85	0xbcb3b80b	-0.021938344
86	0xbdf1b32f	-0.11801755
87	0xbf2713fb	-0.6526486
88	0xbe544e57	-0.2073301
89	0x3e8b1103	0.27161416
90	0x3a02337d	0.0004966779
91	0x3df20439	0.11817212
92	0xbef14d9c	-0.47129524
93	0xbf065704	-0.52476525
94	0xbeb7668c	-0.35820425
95	0xbe923550	-0.285563
96	0x3d60c3eb	0.054874342
97	0x3df2731b	0.11838361
98	0xbe57f434	-0.2108925
99	0x3e771045	0.241273
100	0xbe2a34ce	-0.16621706
101	0xbe6ed988	-0.23325169
102	0x3e03a47b	0.12855713
103	0x3e56098b	0.20902078
104	0xbe816982	-0.2527581
105	0xbccda393	-0.025102412
106	0xbed458fe	-0.41474146
107	0xbdd98375	-0.106207766
108	0xbec28ec8	-0.37999558
109	0x3dfc40d1	0.1231705
110	0x3d8f7ebd	0.07006595
111	0x3d65be7d	0.056089867
112	0x3e00521b	0.12531321
113	0xbe9423ed	-0.2893366
114	0xbd8a1735	-0.06742708
115	0x3e5c3b62	0.21507028
116	0xbe214310	-0.15748239
117	0xbe93d4d1	-0.28873304
118	0xbda1c393	-0.07898631
119	0xbd2ec4cc	-0.04266815
120	0x3ead9fb1	0.33910897
121	0x3cee2cf7	0.029074175
122	0xbe5e5e2a	-0.21715608
123	0x3ee25e36	0.44212502
124	0xbe89e0af	-0.26929232
125	0x3e6ef35b	0.2333502
126	0xbb8b49a8	-0.004250724
127	0xbef69f42	-0.4816838
128	0x3e147188	0.14496434
129	0xbe5757d1	-0.21029593
130	0xbe8e96fd	-0.2784957
131	0x3d8dabdb	0.069175445
132	0x3f0342b1	0.5127364
133	0x3dadc685	0.0848513
134	0x3e7bdb34	0.24595338
135	0xbf51c3d5	-0.8193944
136	0xbdb72a2b	-0.0894359
137	0x3e530140	0.20605946
138	0xbefee307	-0.49782583
139	0x3e89da76	0.26924485
140	0xbe4f0c1c	-0.20219463
141	0xbb483c35	-0.0030553464
142	0x3d8b15d2	0.06791271
143	0x3cb2a0ac	0.02180513
144	0xbdb5419c	-0.088504046
145	0x3e1ef543	0.15523247
146	0x3ed56422	0.41677958
147	0xbd72809b	-0.05920468
148	0xbd24aff8	-0.04020688
149	0x3e1d599b	0.15366213
150	0xbe5d26f4	-0.2159689
151	0x3edc6e77	0.43053028
152	0x3cc5aacb	0.024129292
153	0xbcf98441	-0.030458571
154	0xbe6401f8	-0.22266376
155	0x3e03a0be	0.12854287
156	0x3db3204c	0.087463945
157	0x3e960b52	0.29305512
158	0xbf04f896	-0.5194181
159	0x3f305675	0.6888192
160	0xbe461064	-0.1934219
161	0xbe273995	-0.1633056
162	0x3d80e8da	0.06294413
163	0x3eed8baa	0.46395618
164	0xbd97372c	-0.0738357
165	0xbdc526de	-0.09626554
166	0xbad5494e	-0.0016272457
167	0xbdd4b2bd	-0.10385654
168	0x3e6ba27b	0.230112
169	0xbe75b865	-0.23996122
170	0x3e1723c6	0.1475974
171	0xbe9d4d25	-0.3072292
172	0xbdd85e5d	-0.10564873
173	0xbec16508	-0.37772393
174	0xbe85d861	-0.26141647
175	0x3e0cb6f8	0.13741672
176	0xbe8e3524	-0.27774918
177	0xbd8eaa18	-0.069660366
178	0xbe0d5f46	-0.13805875
179	0xbee2d710	-0.44304705
180	0xbeec26a2	-0.46123224
181	0xbefa8c20	-0.48935032
182	0x3f998140	1.1992569
183	0x3eebbf75	0.46044508
184	0xbef1b7c6	-0.4721052
185	0xbc686834	-0.014185
186	0xbe475554	-0.19466144
187	0x3e3c6c05	0.18400581
188	0xbe11fd40	-0.14256763
189	0xbe59b4bf	-0.21260355
190	0xbcd80771	-0.026370736
191	0xbe4098cc	-0.18808287
192	0x3dc006c0	0.093762875
193	0xbdc3c2e0	-0.09558654
194	0x3ee48312	0.4463125
195	0xbf41b6d3	-0.7566959
196	0xbcdfa9b1	-0.027302595
197	0xbe941fe9	-0.28930596
198	0xbe9291e4	-0.2862693
199	0xbca4a83e	-0.020099755
200	0xbe0a8a87	-0.13529406
201	0xbd0f517b	-0.034989815
202	0xbeb9fd1b	-0.36325917
203	0xbd296974	-0.041360334
204	0xbf34b275	-0.70584804
205	0x3ea48795	0.3213469
206	0x3e152a9b	0.14567034
207	0xbdbf5ad0	-0.09343493
208	0xbef56d0a	-0.47934753
209	0x3ea6237e	0.32448953
210	0xbf117fc1	-0.5683556
211	0x3e8d6d1b	0.27622303
212	0xbec7c8af	-0.39020297
213	0xbdc5009c	-0.09619257
214	0xbf02fac6	-0.511639
215	0xbec447b9	-0.3833597
216	0x3f491f38	0.7856326
217	0x3e53d470	0.20686507
218	0xbe20682e	-0.15664741
219	0xbcc5ca14	-0.02414421
220	0xbd401f7a	-0.04690502
221	0x3db9cd4d	0.09072361
222	0x3ded7a96	0.11595647
223	0xbd2a17f6	-0.041526757
224	0xbed609bf	-0.4180431
225	0xbe037384	-0.12837034
226	0xbe6db46d	-0.23213358
227	0xbe3d289d	-0.18472524
228	0xbe5d0a09	-0.2158586
229	0x3f08ffd5	0.5351537
230	0x3de575eb	0.11204132
231	0xbe8c9e72	-0.27464634
232	0x3cc3decc	0.023909949
233	0xbe4db094	-0.2008689
234	0xbec29d19	-0.3801048
235	0x3eb37873	0.35052833
236	0xbecadcd5	-0.39621606
237	0xbe4475c6	-0.19185552
238	0xbe4d99e7	-0.2007824
239	0xbea3ba70	-0.31978178
240	0x3e24b65c	0.1608519
241	0x3dab7f9c	0.08373949
242	0xbf27d8fd	-0.6556547
243	0x3ec39f43	0.38207445
244	0xbd162501	-0.036656383
245	0xbe97cf75	-0.29650465
246	0x3df79a4e	0.12089978
247	0xbdac95ce	-0.084270105
248	0xbe42f209	-0.19037642
249	0xbdc2e8fe	-0.09517096
250	0xbe892a7c	-0.26790226
251	0xbeb2c1d9	-0.3491352
252	0xbe22bcb8	-0.15892303
253	0xbd1b6249	-0.03793553
254	0xba803980	-0.0009782761
255	0xbd69b7d0	-0.057060063

encoder.tree_lstm.cell.U_iou.weight f4 [36, 12]
0	0x3ed58660	0.41704082
1	0x3daca994	0.08430782
2	0x3f128631	0.5723601
3	0xbc8cc3ab	-0.017183146
4	0xbf0aecb3	-0.54267424
5	0x3e471f61	0.19445564
6	0x3f0bfe5e	0.5468501
7	0x3e9e9d2d	0.3097929
8	0x3db375ca	0.08762701
9	0x3d0a4388	0.03375581
10	0x3c2e058f	0.010621442
11	0x3ec5af5f	0.3861036
12	0x3e947f08	0.29003167
13	0xbe1c08ea	-0.15237775
14	0x3e8fda28	0.28096128
15	0xba40ad0f	-0.00073500065
16	0x3c28b82c	0.010297816
17	0xbe6f2de5	-0.23357351
18	0xbe4144ae	-0.18873855
19	0xbf47d865	-0.78064567
20	0x3d9f7ee0	0.07787871
21	0xbe806557	-0.25077316
22	0xbda140c6	-0.07873683
23	0xbdde65ee	-0.10859285
24	0x3c134fbf	0.008991181
25	0xbebc587e	-0.36786264
26	0x3cea9a1a	0.028637934
27	0x3cff3911	0.031155141
28	0xbe9c5d10	-0.3053975
29	0xbda44d6d	-0.0802258
30	0x3ec0aa67	0.37630007
31	0xbe0af706	-0.13570794
32	0x3e5629c5	0.20914371
33	0x3da4a4eb	0.08039268
34	0x3ee02a4a	0.43782264
35	0x3e866019	0.26245192
36	0x3f0e7558	0.556478
37	0x3efab6c7	0.48967573
38	0xbca08955	-0.019596735
39	0x3f15ef3c	0.5856817
40	0x3ddd6465	0.10810164
41	0x3dfc4c26	0.12319212
42	0xbe884043	-0.26611528
43	0xbd9c81e0	-0.07641959
44	0x3e72bc37	0.23704611
45	0x3e95f1d1	0.29286054
46	0x3e8ac80d	0.27105752
47	0x3d59ab17	0.05314168
48	0xbd56af90	-0.052413523
49	0x3e2fa57e	0.17152974
50	0x3cf0e155	0.029404322
51	0x3d5f69bd	0.0545442
52	0xbe837f39	-0.25683
53	0xbea20fec	-0.31652772
54	0x3d2f98f6	0.042870484
55	0xbdfea711	-0.12434209
56	0x3e793275	0.24335654
57	0xbefe9a4c	-0.49727094
58	0x3ec4f010	0.38464403
59	0xbd845e24	-0.064632684
60	0x3e7ccb0e	0.24686834
61	0x3d665384	0.05623199
62	0x3ea55604	0.32292187
63	0x3f82e212	1.0225241
64	0xbf015373	-0.5051796
65	0xbe12fe5e	-0.14354846
66	0xbd83377c	-0.06407067
67	0x3dd6a911	0.104814656
68	0xbd96f131	-0.07370222
69	0xbe251cc1	-0.1612425
70	0x3f64a1f8	0.89309645
71	0xbce0a2fa	-0.027421463
72	0xbced44fa	-0.028963555
73	0x3ef9251b	0.48661122
74	0x3f16ea58	0.5895133
75	0xbee109c4	-0.43952763
76	0xbf0b0e79	-0.5431896
77	0xbed55252	-0.41664368
78	0x3e9af8e1	0.30268005
79	0xbd34ec6f	-0.044170793
80	0xbf0a4f55	-0.540273
81	0xbcbe2a0a	-0.023213405
82	0x3cc76e70	0.024344653
83	0x3e62447d	0.22096439
84	0xbe8215dd	-0.25407305
85	0xbf2dd985	-0.67910033
86	0xbeec320d	-0.46131936
87	0x3e5d0608	0.21584332
88	0xbd7a509e	-0.06111204
89	0x3d515a67	0.051111605
90	0xbe242087	-0.16028033
91	0xbe807c12	-0.25094658
92	0x3f2ba0f2	0.6704246
93	0xbe7842a4	-0.24244171
94	0x3eafc13c	0.34327114
95	0xbeb1a9ca	-0.3469985
96	0xbf4c1683	-0.7972185
97	0xbe2bf3a9	-0.16792168
98	0x3ca127a7	0.019672228
99	0xbe02fec1	-0.12792493
100	0x3e75f965	0.24020918
101	0x3df0bcdf	0.11754774
102	0xbbc17608	-0.005903963
103	0x3ed16dd5	0.40904108
104	0xbc1d39eb	-0.009596328
105	0xbf0c760b	-0.5486762
106	0xbd630d39	-0.055432532
107	0xbe2dd84d	-0.16977043
108	0x3ea7724e	0.32704395
109	0xbe7f1050	-0.24908566
110	0x3e7b80e6	0.2456089
111	0x3e99409b	0.29932103
112	0xbec1e7dc	-0.37872207
113	0xbd7b8a19	-0.061410997
114	0x3e1b119e	0.15143439
115	0x3e202812	0.15640286
116	0x3ea86d3e	0.32895845
117	0x3e253507	0.1613351
118	0x3f28fb80	0.6600876
119	0x3e29f6fb	0.16598122
120	0xbe1311e8	-0.143623
121	0x3ce951da	0.028481413
122	0xbe896f61	-0.26842788
123	0x3de8fd1a	0.113764
124	0xbe11299b	-0.14176027
125	0xbe00131a	-0.12507287
126	0x3e6d8634	0.23195726
127	0x3be6577f	0.0070294733
128	0x3e34c822	0.1765447
129	0x3e4cfc49	0.20018114
130	0x3e51496d	0.20438166
131	0xbe93ebdd	-0.28890887
132	0x3e37c1e6	0.1794506
133	0xbd83400a	-0.06408699
134	0xbe84db38	-0.259485
135	0xbd2a143b	-0.0415232
136	0x3dada643	0.084789775
137	0x3e03cfe3	0.12872271
138	0x3e351698	0.176844
139	0x3e644099	0.22290267
140	0x3deaad85	0.114588775
141	0xbd7131a0	-0.058885217
142	0x3e9353a2	0.28774744
143	0x3e58af3a	0.21160594
144	0x3ead66ef	0.33867595
145	0xbea44703	-0.32085428
146	0x3e82a16c	0.2551378
147	0xbcad65fe	-0.021166798
148	0xbe906fd7	-0.28210327
149	0xbd9769d5	-0.07393233
150	0x3eba5ba2	0.36398035
151	0x3ea62333	0.3244873
152	0xbdc9131a	-0.098180965
153	0x3d7f41df	0.06231868
154	0x3e43b652	0.19112518
155	0x3e3cc56e	0.18434688
156	0x3f5481b1	0.83010393
157	0xbe0b2d59	-0.13591518
158	0x3ed0e6b2	0.40801007
159	0x3ee4654b	0.4460853
160	0xbc95aa11	-0.01826957
161	0xbe36fa46	-0.17868909
162	0xbe0c692f	-0.13712
163	0xbea9d306	-0.3316881
164	0x3e7aa6a0	0.24477625
165	0xbeb317e0	-0.34979153
166	0xbcf7d11a	-0.030251075
167	0x3e673876	0.22580132
168	0xbcedd870	-0.02903387
169	0x3eb47a06	0.35249346
170	0x3eafbb73	0.343227
171	0x3d9acac4	0.07558206
172	0xbeb54ebe	-0.35411638
173	0xbea2a38c	-0.317654
174	0x3eccc5b4	0.39994586
175	0x3ebe03c6	0.37112254
176	0x3eca8d4c	0.39560926
177	0x3eb9e576	0.36307877
178	0x3f1b2e9a	0.60617983
179	0x3d9ff606	0.07810597
180	0x3ea9263e	0.3303699
181	0xbeb682db	-0.3564671
182	0x3f05fd09	0.52339226
183	0x3ebf1219	0.37318495
184	0xbdbdd2f5	-0.092687525
185	0x3f0db5ee	0.5535573
186	0xbdb4f814	-0.0883638
187	0x3f42140b	0.75811833
188	0xbd69d217	-0.057085123
189	0x3d819767	0.06327706
190	0xbbe8fa3f	-0.00710991
191	0x3e04a427	0.12953244
192	0x3d8350c4	0.06411889
193	0x3ea3c810	0.31988573
194	0xbd5e4748	-0.054267198
195	0x3e589dcc	0.21153945
196	0xbe105c75	-0.1409777
197	0xbd3c2722	-0.045935757
198	0xbda4141f	-0.0801165
199	0xbee5744e	-0.44815296
200	0x3f094b67	0.5363068
201	0xbcd821d0	-0.02638331
202	0x3ec0afcd	0.37634125
203	0x3de2498e	0.11049186
204	0x3e76031d	0.24024625
205	0xbe0fc8cc	-0.14041442
206	0x3ef2f410	0.4745183
207	0x3f6acf61	0.91722685
208	0xbd824837	-0.0636143
209	0xbc16fecd	-0.009216023
210	0x3d3019b3	0.04299326
211	0xbe8d62d8	-0.27614474
212	0x3eb44532	0.35209042
213	0xbe7cc2b6	-0.24683651
214	0x3f770b76	0.96501863
215	0x3e0dd5db	0.1385111
216	0x3eb40fd0	0.35168314
217	0xbe90a3b4	-0.28249896
218	0x3df67407	0.12033849
219	0xbec8001a	-0.39062577
220	0xbf29e5d6	-0.66366327
221	0x3dd80c72	0.10549249
222	0x3deda874	0.116043955
223	0xbe6e9540	-0.23299122
224	0xbcdc0031	-0.02685556
225	0x3e3719fe	0.17881009
226	0x3e292a70	0.16520095
227	0xbde20d7a	-0.11037727
228	0xbd2591df	-0.040422317
229	0x3ea4cce8	0.3218758
230	0x3f08f00e	0.53491294
231	0x3e5431aa	0.2072207
232	0xbecd0c72	-0.40048558
233	0xbe2604d0	-0.16212773
234	0x3f1e3260	0.61795616
235	0xbe4925a2	-0.19643262
236	0x3ee2081f	0.4414682
237	0x3c9857bb	0.01859652
238	0x3f600767	0.87511295
239	0x3f1dbc63	0.6161558
240	0x3dce4298	0.100712955
241	0x3dd53031	0.104095824
242	0x3e0559ba	0.13022509
243	0x3e81d4ea	0.25357753
244	0xbee2e425	-0.44314685
245	0xbed714dd	-0.42008105
246	0xbe4ca44d	-0.19984551
247	0xbe80c7d7	-0.25152466
248	0x3e964229	0.2934735
249	0xbd4a798c	-0.049432322
250	0xbd28a93c	-0.04117702
251	0x3e4f39ce	0.20236894
252	0x3e7e102c	0.24810857
253	0xbddd8cfc	-0.10817906
254	0x3d005121	0.03132737
255	0x3c747d42	0.014922442

encoder.tree_lstm.cell.U_f.weight f4 [12, 12]
0	0x3d5166ae	0.051123314
1	0x3f1ab7af	0.6043653
2	0x3ee5d457	0.44888565
3	0xbefa4e4f	-0.4888787
4	0x3e8987dc	0.26861465
5	0x3ef3745b	0.4754971
6	0x3e4f54b4	0.20247155
7	0x3f2da17b	0.67824525
8	0xbf13a17c	-0.5766828
9	0xbd8561d4	-0.065128
10	0x3eaf8788	0.3428309
11	0x3e1810fc	0.14850229
12	0xbf126e12	-0.57199204
13	0x3ccc9ee1	0.024978103
14	0xbd7f0f89	-0.062270675
15	0x3ead2631	0.338182
16	0x3eaaee45	0.3338491
17	0x3ece479c	0.4028901
18	0x3da0a060	0.07843089
19	0x3ca48609	0.020083444
20	0xbeeb64bf	-0.459753
21	0xbf9107c9	-1.1330501
22	0xbe16d730	-0.14730525
23	0xbec0c2d1	-0.37648633
24	0x3eab9ba7	0.3351719
25	0x3eecf038	0.46277022
26	0x3e24966f	0.16073011
27	0x3f169b18	0.58830404
28	0x3d0ae8dd	0.033913482
29	0x3d06177a	0.032737233
30	0x3f13323c	0.57498527
31	0x3e8c7cd5	0.2743899
32	0xbdfcfa00	-0.12352371
33	0xbf1a6190	-0.6030512
34	0xbcd25c79	-0.02567886
35	0x3e5eaddb	0.21746008
36	0x3e0e8e41	0.13921453
37	0x3e523c09	0.20530714
38	0x3ded2bd3	0.115806244
39	0x3f23a9f0	0.6393118
40	0xbf0af79d	-0.5428408
41	0x3e76dfb5	0.24108775
42	0x3eb9398e	0.36176723
43	0x3ee40e6d	0.44542256
44	0x3ebd864a	0.37016517
45	0x3f15ce66	0.58518064
46	0x3f9687b7	1.1760167
47	0x3e6cd070	0.23126388
48	0x3dcf93b9	0.10135598
49	0x3ea44785	0.32085815
50	0xbe5dba95	-0.21653207
51	0x3df5a80f	0.11994945
52	0xbf193400	-0.5984497
53	0xbe912100	-0.2834549
54	0x3d46cafc	0.048533425
55	0xbe92f9b0	-0.2870612
56	0x3ed77fec	0.42089784
57	0xbe802832	-0.25030667
58	0x3ee714bb	0.45133004
59	0x3eaaddbf	0.33372304
60	0x3de74b5b	0.1129367
61	0x3e245fb4	0.16052133
62	0x3e66617b	0.22498123
63	0x3eb569b1	0.354322
64	0xbe17eaad	-0.14835615
65	0x3e39a753	0.18130235
66	0x3e03ef1e	0.12884185
67	0xbe172984	-0.1476193
68	0xbdc7e945	-0.097612895
69	0xbe30cd9b	-0.17265932
70	0x3f26320b	0.6492011
71	0x3ef26c74	0.47348368
72	0xbe88cff5	-0.2672116
73	0xbc0fc717	-0.008775494
74	0x3db21b19	0.08696575
75	0xbf0257d7	-0.5091528
76	0x3ea0669e	0.3132829
77	0x3eb26dd1	0.34849408
78	0xbd2d1415	-0.04225548
79	0x3f3fc280	0.7490616
80	0xbf29746a	-0.6619326
81	0xbf01e5fd	-0.5074156
82	0xbee4e567	-0.4470627
83	0x3dd0be43	0.101925395
84	0xbe6c712a	-0.23090044
85	0x3f16947f	0.5882034
86	0x3eeb5beb	0.45968565
87	0x3e9cacbf	0.30600545
88	0xbe951dc5	-0.29124275
89	0xbd6dabbb	-0.058025103
90	0x3e88d2c4	0.267233
91	0xbe88f8d4	-0.2675234
92	0x3f12b70f	0.57310575
93	0x3e298a28	0.16556609
94	0x3f4f1549	0.80891854
95	0x3f0270f8	0.50953627
96	0x3d7fd6a2	0.06246055
97	0xbe8f18d1	-0.2794862
98	0xbf5685e0	-0.8379803
99	0xbd11be9b	-0.035582166
100	0x3ea72127	0.3264248
101	0x3e2e45e0	0.17018843
102	0xbda475dd	-0.08030293
103	0xbf28b9e3	-0.6590864
104	0x3d5c8b0c	0.053843543
105	0xbe22fa13	-0.15915708
106	0xbe393128	-0.18085158
107	0xbed7da13	-0.42158565
108	0xbe97c9b5	-0.29646078
109	0x3ec2ea9c	0.38069618
110	0x3eb6aebc	0.35680187
111	0xbe7dcb10	-0.24784493
112	0xbccf4a81	-0.02530408
113	0xbe97943d	-0.29605284
114	0xbe546755	-0.20742543
115	0x3d3fb1d1	0.04680044
116	0x3e42ef19	0.19036521
117	0x3e89b737	0.26897594
118	0x3ec26a7f	0.37971875
119	0x3edd1630	0.4318099
120	0xbf60f583	-0.8787462
121	0xbd57f9c8	-0.052728444
122	0xbecd64d7	-0.40115997
123	0xbe23af01	-0.15984727
124	0xbe6e95ec	-0.23299378
125	0xbe4f0683	-0.20217328
126	0xbe9ec17d	-0.31006995
127	0xbe0b3a61	-0.13596489
128	0x3d32767d	0.04357003
129	0xbe5a2c1c	-0.21305889
130	0xbe323fa9	-0.17407097
131	0xbec4d4b0	-0.38443518
132	0x3f569235	0.83816844
133	0x3e27e27a	0.16394988
134	0x3eb55a40	0.35420418
135	0x3ef56e41	0.4793568
136	0xbe4f8865	-0.20266874
137	0xbcc5c471	-0.024141522
138	0x3f0d7622	0.5525838
139	0x3eee4b19	0.4654167
140	0x3ea3ed69	0.32017067
141	0x3e47da2c	0.1951682
142	0x3e981201	0.29701236
143	0x3e0b2807	0.13589488

encoder.tree_lstm.cell.U_f.bias f4 [12]
0	0x3e4f8ce4	0.2026859
1	0x3df502d3	0.11963429
2	0x3e86b857	0.26312515
3	0x3ee17af8	0.4403913
4	0x3de2a3a3	0.110663675
5	0x3e2848f8	0.16434085
6	0xbb9cf9d1	-0.0047905226
7	0x3ee2debb	0.44310555
8	0x3e4dd454	0.20100528
9	0xbd2a8a29	-0.041635666
10	0xbd8d142b	-0.06888612
11	0x3ec20486	0.37894076

encoder.tree_lstm.linear_o.weight f4 [8, 12]
0	0x3eae9454	0.3409754
1	0xbf1a9078	-0.6037669
2	0x3dce919d	0.10086367
3	0xbe55936f	-0.20857023
4	0xbd0ab719	-0.03386602
5	0xbdb1f3c4	-0.08689073
6	0xbe92f63e	-0.28703493
7	0xbee51d23	-0.44748792
8	0x3dfe5509	0.12418563
9	0x3e46d57d	0.19417377
10	0x3dbb3c70	0.09142387
11	0xbd7ce812	-0.061744757
12	0xbe944ece	-0.28966373
13	0x3f2ea013	0.68213004
14	0x3eaf1ad8	0.34200168
15	0xbf4b4778	-0.7940593
16	0xbe72f7c5	-0.23727329
17	0xbf27b459	-0.65509564
18	0x3ee60775	0.44927564
19	0x3e4d3b59	0.2004217
20	0x3dd22ab2	0.1026205
21	0xbeb825b9	-0.3596628
22	0x3e4d7d61	0.2006736
23	0x3e3bd749	0.18343844
24	0xbc0f4133	-0.008743572
25	0x3e860969	0.26179054
26	0xbd4d4a78	-0.050119847
27	0xbfc9c497	-1.576312
28	0x3f0653b7	0.5247149
29	0xbf242b24	-0.6412833
30	0x3ea32df5	0.31871
31	0x3d047d71	0.032346193
32	0x3eeb7fcd	0.45995942
33	0x3e5c0532	0.21486357
34	0x3e064b85	0.13114746
35	0xbce5e8ab	-0.028065046
36	0x3e3f83d8	0.18702638
37	0xbeeaa5e8	-0.458297
38	0x3e5daa13	0.2164691
39	0xbed291ba	-0.41126806
40	0x3dd6a604	0.10480884
41	0xbe033976	-0.12814888
42	0xbeb4e8a8	-0.35333753
43	0x3e938c42	0.28817946
44	0xbe4f93de	-0.2027125
45	0x3ea10237	0.31447002
46	0xbea6e624	-0.32597458
47	0x3e619cbc	0.22032446
48	0xbe276029	-0.16345276
49	0xbf9a6bd4	-1.2064157
50	0xbf20842a	-0.62701666
51	0xbf00116d	-0.5002659
52	0x3ca69967	0.02033682
53	0x3dfdd619	0.123943515
54	0xbfa95d03	-1.323151
55	0xbf578d60	-0.84200096
56	0xbf2eefb4	-0.6833451
57	0xbe5f7237	-0.21820913
58	0xbf6a2dd1	-0.9147616
59	0xbe96c523	-0.29447278
60	0x3e77790d	0.24167271
61	0xbf97b4e1	-1.1852075
62	0xbedf69d1	-0.4363542
63	0xbf0822ae	-0.53177917
64	0xbda876b4	-0.08225766
65	0x3ec21135	0.37903753
66	0xbf5db00f	-0.8659677
67	0xbf2bd419	-0.6712051
68	0xbeef1498	-0.466954
69	0xbeaf3f8d	-0.34228173
70	0xbf7d6528	-0.9898248
71	0xbee592aa	-0.44838458
72	0x3db96b5c	0.0905368
73	0xbf1120e2	-0.566908
74	0xbf2bd649	-0.6712385
75	0xbe95a2e1	-0.2922583
76	0x3cc0d231	0.023537727
77	0x3e90ec14	0.28305113
78	0xbfba399d	-1.4548832
79	0xbfaac2c4	-1.3340688
80	0xbf11aaf2	-0.56901467
81	0xbf1649d3	-0.58706397
82	0xbf7b78b0	-0.9823103
83	0xbeeb3c03	-0.45944223
84	0xbe6192bb	-0.2202863
85	0xbf5fd3fc	-0.8743284
86	0xbef2d122	-0.4742518
87	0xbef3a67d	-0.47587958
88	0xbb20879a	-0.0024494887
89	0x3ca9a137	0.020706756
90	0xbfbb696e	-1.464155
91	0xbfc4d8fe	-1.5378721
92	0xbec0e586	-0.37675112
93	0xbe1fa3d8	-0.15589845
94	0xbf7bd7a7	-0.98375934
95	0xbe488577	-0.19582163

encoder.tree_lstm.linear_o.bias f4 [8]
0	0xbd473da5	-0.048642773
1	0xbd4c0d14	-0.04981716
2	0xbdbc5a09	-0.0919686
3	0xbd98bf82	-0.07458402
4	0xbed1c6c0	-0.40971947
5	0xbed5bd8a	-0.4174617
6	0xbe837572	-0.2567554
7	0xbee46571	-0.44608644

decoder.mlp.0.weight f4 [4, 4]
0	0x3ea30f92	0.31847817
1	0xbe900c1d	-0.28134242
2	0xbf0821c1	-0.53176504
3	0xbc33ba21	-0.01096967
4	0x3eed66f6	0.46367615
5	0x3ed04155	0.40674844
6	0x3faa19b7	1.3289098
7	0xc000c428	-2.0119724
8	0xbf9673f0	-1.1754131
9	0x3fc21819	1.5163604
10	0xbec04f96	-0.3756072
11	0xbe2f2f47	-0.17107879
12	0x3fbfdb6a	1.4988835
13	0x3ddfabd8	0.109214485
14	0xbed53bcb	-0.4164718
15	0x3f923307	1.1421822

decoder.mlp.0.bias f4 [4]
0	0x3ffbd686	1.9674842
1	0x3ff3fa80	1.9060822
2	0x3feafe64	1.8358884
3	0x3f19849f	0.5996799

decoder.mlp.2.weight f4 [4, 4]
0	0x3f625e7e	0.88425434
1	0x3ff49264	1.9107175
2	0x4020d98a	2.5132775
3	0xbd4518b5	-0.048119266
4	0x3f2fabeb	0.686217
5	0x3e4f7886	0.2026082
6	0xbfdd0cad	-1.7269493
7	0x3fde5391	1.7369252
8	0x3f931783	1.149155
9	0x402bd554	2.6848955
10	0xbd99f778	-0.07517904
11	0xbcb40c57	-0.02197854
12	0x3fbeeecc	1.4916625
13	0xbdfe6530	-0.12421644
14	0x3ff622b1	1.9229337
15	0xbe495f2a	-0.19665208

decoder.mlp.2.bias f4 [4]
0	0x3f8a79d4	1.0818429
1	0x3fcdb552	1.607096
2	0x3ef2dbcd	0.4743332
3	0xbcb8801b	-0.022522023

decoder.mlp.4.weight f4 [800, 4]
0	0x3f0a1fa9	0.5395456
1	0x3e42db5c	0.19028991
2	0x3f874d31	1.0570432
3	0xbe948607	-0.29008505
4	0xbe1051fa	-0.14093772
5	0xbf891521	-1.0709573
6	0xbbfea618	-0.0077712648
7	0xbf8bf8ca	-1.0935299
8	0x3f06b8c8	0.52625704
9	0xbfff0b9c	-1.9925418
10	0xbd8ea2e2	-0.06964661
11	0xbf226aba	-0.634441
12	0x3fa9f859	1.3278915
13	0x4020cc0d	2.5124543
14	0x3fb19c74	1.3875871
15	0x3fc96bce	1.5736024
16	0xbee85823	-0.45379743
17	0xbf090b2d	-0.5353268
18	0xbf6910d7	-0.9104132
19	0xbf20c5fa	-0.6280209
20	0xbe8893ce	-0.26675266
21	0xbf2ca791	-0.67443186
22	0xbf9063ae	-1.128042
23	0xbf169380	-0.5881882
24	0x3dd3cd65	0.1034191
25	0x3f385bd1	0.720151
26	0x3f0a2ff0	0.53979397
27	0x3f11b92f	0.5692319
28	0x3f036222	0.51321614
29	0x3ead3843	0.33831987
30	0x3f1ecde4	0.62032914
31	0x3e2e6240	0.17029667
32	0xbe32790e	-0.17428991
33	0x3e869478	0.26285148
34	0x3e080bf0	0.13285804
35	0x3f03c394	0.51470304
36	0x3f0a1f28	0.5395379
37	0x3f1801a4	0.59377503
38	0x3f19ce19	0.60080105
39	0x3f8b4d2e	1.0882928
40	0x3e457795	0.19283898
41	0xbdc9dd39	-0.09856648
42	0xbf8fd35c	-1.1236377
43	0x3f5653a9	0.83721405
44	0x3fb93c9e	1.4471624
45	0x3f3b3aa8	0.7313638
46	0x3ebaffad	0.3652319
47	0x3f948c77	1.1605366
48	0xbef80d46	-0.48447627
49	0xbf465c68	-0.7748475
50	0xbd1c90d4	-0.038224056
51	0x3cae0d0c	0.021246456
52	0x3d96bda3	0.07360389
53	0xbf42f3a1	-0.76153
54	0x3ef474a0	0.47745228
55	0x3e86685c	0.26251495
56	0x3f0441e5	0.5166305
57	0x3f23503d	0.6379431
58	0xbe979e35	-0.2961289
59	0xbde2a19d	-0.110659815
60	0x3eda6af1	0.42659715
61	0x3e618d55	0.2202657
62	0xbe4f31f8	-0.20233905
63	0xbeefc7da	-0.46832162
64	0xbf0f56e6	-0.5599197
65	0x3e1799e0	0.14804792
66	0x3f279248	0.6545758
67	0x3dd14f5e	0.10220216
68	0xbe3508c7	-0.1767913
69	0x3e93703a	0.2879656
70	0x3e65cbb9	0.22440995
71	0x3d8fdc94	0.07024494
72	0x3e963bcf	0.29342505
73	0x3bf6db21	0.0075334464
74	0x3eb491f9	0.35267618
75	0xbf3d6c18	-0.7399306
76	0xbf2e2b72	-0.6803504
77	0xbe384b0d	-0.1799738
78	0x3f2a2df4	0.6647637
79	0xbecf7e05	-0.40525833
80	0xbe226e6d	-0.15862437
81	0xbf11fa7e	-0.57022846
82	0xbd906545	-0.07050566
83	0xbdf83a33	-0.121204756
84	0xbf0c1145	-0.5471385
85	0xbf8307e0	-1.0236778
86	0xbf301475	-0.68781215
87	0xbf163e5f	-0.5868892
88	0x3efc5265	0.49281612
89	0x3e087b50	0.1332829
90	0x3f3ee93f	0.74574655
91	0x3f2e25d1	0.68026453
92	0x3f0a2e25	0.5397666
93	0x3e0f9f84	0.14025694
94	0x3e2991e7	0.16559564
95	0xbcc4b5ef	-0.024012534
96	0xbdfa0ed6	-0.12209861
97	0x3ea2d88d	0.3180584
98	0x3f046ff2	0.51733315
99	0xbeca6192	-0.39527565
100	0xbd089fdd	-0.033355583
101	0x3f2e5903	0.6810457
102	0xbead8789	-0.33892468
103	0x3f12e4d8	0.5738044
104	0x3f078f05	0.52952605
105	0xbccb5d6a	-0.024824817
106	0xbee76496	-0.45193928
107	0xbd8febe4	-0.070274144
108	0xbf01caf9	-0.50700337
109	0xbedd59f9	-0.43232706
110	0x3e1fcc33	0.1560524
111	0xbe9e579a	-0.3092621
112	0xbf0d42aa	-0.55179846
113	0xbedbdf1e	-0.42943662
114	0xbf15d7c8	-0.5853238
115	0xbeed9af6	-0.46407288
116	0xbf49a67d	-0.78769666
117	0xbf1769c4	-0.5914576
118	0xbf5cdd5d	-0.86275274
119	0xbf81e93c	-1.0149302
120	0x3f25efdb	0.64819115
121	0x3dc7f63f	0.097637646
122	0x3f0241c8	0.50881624
123	0x3f6db81f	0.9285907
124	0x3ee191fe	0.44056696
125	0x3eb19cfa	0.34690076
126	0x3f3c772d	0.7361935
127	0x3f5b91fc	0.8576963
128	0xbf104865	-0.56360465
129	0x3f1d3fd8	0.6142554
130	0x3e919cea	0.28440028
131	0xbe9c5fb5	-0.3054177
132	0xbecec3a8	-0.4038365
133	0x3eec895b	0.46198544
134	0x3f540561	0.8282071
135	0x3c9212f7	0.017831309
136	0x3ec550d5	0.38538232
137	0xbf64482f	-0.89172643
138	0xbecc1992	-0.3986326
139	0x3f0e5324	0.5559561
140	0x3b05e599	0.002043104
141	0xbebeb782	-0.3724938
142	0xbfcb222b	-1.5869802
143	0x3f2f3009	0.6843267
144	0xbddac928	-0.10682899
145	0xbeb735c1	-0.35783198
146	0xbef9b5fa	-0.4877165
147	0xbf523794	-0.82116055
148	0xbf0c2e3d	-0.54758054
149	0xbf53be8a	-0.82712615
150	0xbf854e53	-1.0414528
151	0xbf9510fb	-1.1645807
152	0x3f340525	0.7032035
153	0x3d8fed5a	0.07027693
154	0x3eb09d6f	0.34495112
155	0x3f4d85d3	0.80282325
156	0x3f292c16	0.66082895
157	0x3ef9b1f0	0.48768568
158	0x3f5f1193	0.8713619
159	0x3e5c0ee5	0.21490057
160	0xbca4492e	-0.020054426
161	0x3f308c59	0.68964154
162	0xbf5b0da5	-0.85567695
163	0x3e0bb854	0.13644534
164	0xbeda5fb3	-0.42651138
165	0x3f095bef	0.53655905
166	0x3e843e39	0.25828722
167	0x3d460a8a	0.048349895
168	0x3f0c412b	0.5478694
169	0xbfc08076	-1.5039203
170	0xbf3dba3d	-0.741123
171	0x3f7d69e9	0.9898973
172	0x3e7b2fc0	0.24529934
173	0xbe29f162	-0.16595986
174	0xbf43c748	-0.76475954
175	0x3e722b09	0.23649229
176	0xbeb2acfa	-0.34897596
177	0xbf18ec32	-0.59735405
178	0xbf85f090	-1.0464039
179	0xbf341037	-0.7033724
180	0xbf439002	-0.76391613
181	0xbf4d610a	-0.80226195
182	0xbf58c430	-0.8467436
183	0xbf6333d0	-0.88750935
184	0x3f3c3942	0.7352487
185	0x3e82746c	0.25479448
186	0x3f300b83	0.68767565
187	0x3f6a56fe	0.9153899
188	0x3e61d45d	0.22053666
189	0x3f06f2e6	0.52714384
190	0x3f6ca8ed	0.9244526
191	0x3ea619aa	0.32441455
192	0xbee32a54	-0.4436823
193	0x3e9e3413	0.30899104
194	0xbf0bd5c2	-0.54623044
195	0x3eb8a26b	0.36061415
196	0xbf67ca24	-0.9054282
197	0x3f81a69b	1.0128969
198	0x3f736e1c	0.9508989
199	0xbf8f4bc0	-1.1194992
200	0xbdde14f2	-0.10843839
201	0xbde29b39	-0.110647626
202	0xbdb2af8b	-0.087248884
203	0xbd581880	-0.05275774
204	0xbf078c11	-0.529481
205	0x3e843743	0.2582341
206	0xbf8308b3	-1.023703
207	0x3d9b6219	0.0758707
208	0xbeea69bb	-0.4578379
209	0xbd91c3a3	-0.07117393
210	0xbf188af3	-0.5958702
211	0xbe9f9556	-0.31168622
212	0xbec748ae	-0.38922638
213	0xbf81e41c	-1.0147738
214	0xbf30d9ab	-0.69082135
215	0xbe46a5af	-0.19399141
216	0x3eaa7bd1	0.3329759
217	0x3f0a3462	0.5398618
218	0x3ee70699	0.4512222
219	0x3ed43a14	0.4145056
220	0x3f2c855d	0.67390996
221	0x3ea52458	0.3225429
222	0x3e41fa58	0.18943155
223	0x3f1c458d	0.61043626
224	0xbf615881	-0.8802567
225	0x3edf3884	0.43597806
226	0x3e2bc570	0.16774535
227	0xbebd29ff	-0.36946103
228	0xbf317744	-0.6932261
229	0x3f038547	0.5137524
230	0x3d617818	0.05504617
231	0x3e07e781	0.13271905
232	0xbd5bbad0	-0.053644955
233	0xbdd84305	-0.10559658
234	0xbec7cbae	-0.39022583
235	0x3e9c648f	0.3054547
236	0xbf4d9776	-0.80309236
237	0x3e2f9aab	0.17148845
238	0xbe2887bd	-0.1645803
239	0xbe63e7cb	-0.22256391
240	0xbf324d33	-0.69649047
241	0xbf3185c6	-0.6934475
242	0xbed5ad06	-0.4173357
243	0xbf55a67d	-0.83457166
244	0xbf17c41b	-0.5928361
245	0xbf713172	-0.9421607
246	0xbf9861c5	-1.1904837
247	0xbefc6afa	-0.49300367
248	0x3ebb2baf	0.36556765
249	0x3f2d1e0e	0.67623985
250	0x3f0b055a	0.5430504
251	0x3f4ea527	0.8072075
252	0x3eb41847	0.35174772
253	0x3f2588d9	0.6466194
254	0x3e4535d0	0.19258809
255	0x3e96c060	0.29443645

decoder.mlp.4.bias f4 [800]
0	0x3f16a079	0.5883861
1	0xc00f9e5b	-2.2440403
2	0xbfbb1a1a	-1.461734
3	0x3d73bb67	0.059504893
4	0xbf232488	-0.6372762
5	0xbf2783f8	-0.65435743
6	0x3e4ca6c5	0.19985493
7	0x3e287340	0.16450214
8	0xbe86948c	-0.26285207
9	0x401577f3	2.3354461
10	0x3fdb9856	1.7155864
11	0xbfbf22ed	-1.4932534
12	0xbe43c3ba	-0.19117633
13	0xbf18afde	-0.5964335
14	0x3ee7b205	0.45253006
15	0xbe56fa3c	-0.20993894
16	0x3e817aed	0.25289097
17	0x3f201c51	0.6254321
18	0xbfd6ab88	-1.6771097
19	0xc00ec620	-2.2308426
20	0xbf0a4488	-0.5401082
21	0xbf45cfae	-0.7727002
22	0x3f658377	0.89653724
23	0x3e1deabc	0.15421575
24	0xbfead9e7	-1.8347749
25	0x3f8965ea	1.0734227
26	0xbfd223e1	-1.6417199
27	0x3d9a663f	0.07539033
28	0xbf3c1812	-0.7347423
29	0xbed3787e	-0.41302866
30	0x3ef4b8d7	0.47797272
31	0x3ecb6139	0.39722613
32	0xbf430943	-0.7618601
33	0xbe00bb8b	-0.12571542
34	0xbfaafdba	-1.3358681
35	0x3f65ea61	0.8981076
36	0xbeb3062f	-0.34965655
37	0xbf089192	-0.5334712
38	0x3f13b884	0.57703424
39	0x3ece5d21	0.40305427
40	0xbf34a5dc	-0.7056558
41	0x3f3f6425	0.74762183
42	0xbf501e00	-0.81295776
43	0x3f26a338	0.650928
44	0x3de2525d	0.11050866
45	0xbefbe9b6	-0.49201745
46	0x3ec96d60	0.3934126
47	0x3eb029bf	0.3440685
48	0xbe88205b	-0.26587185
49	0x3f0663f3	0.5249626
50	0xbfde090d	-1.7346512
51	0x3e9c0dc8	0.30479264
52	0xbe5cca85	-0.2156163
53	0xbf6ae478	-0.91754866
54	0x3e339578	0.17537487
55	0x3f24f1be	0.6443137
56	0xbe28ec43	-0.16496377
57	0x3f557228	0.83377314
58	0xbf92061d	-1.1408116
59	0xbfec185e	-1.8444936
60	0xbeb83453	-0.3597742
61	0xbeaaa0f5	-0.33325925
62	0x3e9d85aa	0.3076604
63	0x3d6358a1	0.055504445
64	0xbfb8a94c	-1.4426665
65	0x402bf6de	2.6869426
66	0x3ec05a50	0.37568903
67	0xbef89504	-0.4855119
68	0xbec97712	-0.39348656
69	0xbf35d064	-0.71021104
70	0x3e191705	0.14950188
71	0x3e554c54	0.20829898
72	0x3f6ddcc7	0.92915004
73	0x3f3b0090	0.73047733
74	0x3f77d010	0.96801853
75	0xc0311305	-2.7667859
76	0xbf4ad6c4	-0.79233956
77	0xbeff1fc1	-0.49828914
78	0x3e63a50a	0.22230926
79	0x3d3f2d52	0.04667408
80	0xc0169123	-2.3526084
81	0x3fd0f5ea	1.6325047
82	0x40175579	2.3645918
83	0x3edba318	0.42897868
84	0xbebf8649	-0.3740714
85	0xbf69de86	-0.9135517
86	0x3e6f54fe	0.23372266
87	0x3ee62f81	0.44958118
88	0xbfa5b6fd	-1.2946469
89	0xbf0e62ee	-0.55619705
90	0x40009dd4	2.009633
91	0x401155b8	2.2708569
92	0xbe52ab53	-0.20573168
93	0xbf2b9f31	-0.6703978
94	0x3f2399de	0.6390666
95	0x3f1c63f6	0.6109003
96	0xc01c8c65	-2.446069
97	0x3e5a61a3	0.21326308
98	0x3fd673db	1.6754106
99	0x3e8c8a01	0.2744904
100	0xbecf3c5c	-0.40475738
101	0xbe26b294	-0.1627906
102	0x3e84a196	0.2590453
103	0x3d59cf6a	0.05317632
104	0xbff606ee	-1.9220865
105	0xbf072bbd	-0.52801114
106	0x3ff09e7a	1.8798363
107	0x3faa83f4	1.3321519
108	0xbf357da0	-0.70894814
109	0xbec3f20f	-0.38270614
110	0x3f1dcdef	0.61642355
111	0x3f1242cd	0.5713318
112	0xbffb54bd	-1.9635235
113	0x3e3b4bb8	0.18290603
114	0x3fe7dda2	1.8114512
115	0x3e8e4698	0.27788234
116	0xbf1c8186	-0.6113514
117	0xbf430778	-0.7618327
118	0x3f06e82a	0.52698004
119	0x3d086c1e	0.033306234
120	0xbfd7b5b1	-1.6852323
121	0xbf8a34f7	-1.0797414
122	0x3f8078d0	1.0036869
123	0x3ef5bffa	0.4799803
124	0xbf12ea4e	-0.5738877
125	0xbedc7985	-0.43061462
126	0x3d783db1	0.06060571
127	0xbde7d6c0	-0.11320257
128	0xbfe0d086	-1.7563636
129	0xc0700dec	-3.7508497
130	0xbf291fdd	-0.66064245
131	0xbe3c2d28	-0.183766
132	0xbf1d8c1e	-0.61541927
133	0xbf042179	-0.51613575
134	0x3f005aad	0.5013836
135	0x3eb93dc9	0.3617995
136	0xbf219437	-0.6311678
137	0xbf68d4aa	-0.909495
138	0xbf476627	-0.7789025
139	0xc008fbc6	-2.140367
140	0x3b83bcaa	0.0040202932
141	0xbf54701b	-0.8298356
142	0x3f01a99f	0.50649446
143	0x3f09905a	0.5373589
144	0x3f171d03	0.59028643
145	0xc01ce63b	-2.4515522
146	0xc026abca	-2.6042352
147	0xbf710d87	-0.94161266
148	0xbe3ba2fc	-0.18323892
149	0xbe78ca02	-0.2429581
150	0x3ef684a2	0.48148066
151	0x3ef6acd9	0.48178747
152	0xbf948d49	-1.1605617
153	0xbeffa5a8	-0.49931073
154	0xbf61ceea	-0.8820635
155	0xbfa12a2c	-1.2590995
156	0xbf46c423	-0.7764303
157	0xbf68dedc	-0.90965056
158	0x3ee12803	0.4397584
159	0x3e97fd0e	0.29685253
160	0xbf1610f2	-0.58619606
161	0xbfa8fe45	-1.3202597
162	0xbfa08948	-1.2541895
163	0xbe8b1d34	-0.27170718
164	0xbf083dce	-0.53219306
165	0xbf108fa8	-0.564692
166	0x3f2163a1	0.63042647
167	0x3f1071c3	0.56423587
168	0xbe6d217e	-0.23157308
169	0xbf981abe	-1.1883161
170	0xbf63e220	-0.89016914
171	0xbe172bfd	-0.14762874
172	0xbe9432d6	-0.28945035
173	0xbe49cf43	-0.1970797
174	0x3f44a73c	0.7681768
175	0x3e356a66	0.17716369
176	0xbebb4fa1	-0.3658419
177	0xbe17fad0	-0.14841771
178	0xbf9336e0	-1.1501122
179	0x3e21f36d	0.15815516
180	0xbef38c65	-0.4756805
181	0xbf411e5a	-0.7543694
182	0x3df56cd0	0.11983645
183	0x3e5545b1	0.20827366
184	0xbea45e9e	-0.32103437
185	0xbf1e9b1b	-0.6195542
186	0xbf86f403	-1.0543216
187	0x3e946643	0.2898427
188	0xbf1a4d0c	-0.60273814
189	0xbf1c333f	-0.61015695
190	0x3c56fcac	0.013121765
191	0x3f25c8cd	0.6475952
192	0xbecc00f0	-0.39844465
193	0x3ed2da08	0.4118197
194	0xbf3e6e24	-0.7438681
195	0xbe842fb0	-0.25817633
196	0xbe41eed9	-0.1893877
197	0xbef8af75	-0.48571363
198	0x3e0253ab	0.1272723
199	0x3e365857	0.17807136
200	0x3f800e06	1.000428
201	0xbe96b239	-0.29432848
202	0xbdb99fe0	-0.09063697
203	0x3f6a91a7	0.916285
204	0xbdd6f82c	-0.10496554
205	0xbed2b7dd	-0.41155902
206	0x3ee2f9ef	0.4433131
207	0x3ec868fe	0.39142603
208	0x3ebc3b97	0.36764213
209	0xbe919d69	-0.28440407
210	0xbfd37e15	-1.6522852
211	0x3f342320	0.70366096
212	0xbf17ac15	-0.5924695
213	0xbf90bebf	-1.1308211
214	0x3ed65c36	0.41867226
215	0x3f01d629	0.5071741
216	0x3ee97fbf	0.45605275
217	0x3ea17924	0.31537735
218	0xbf440de5	-0.765837
219	0x3f89d67a	1.0768578
220	0xbf3c8b00	-0.736496
221	0xbf14f6df	-0.58189195
222	0x3f2d2983	0.67641467
223	0x3f091398	0.5354552
224	0x3f419c4f	0.75629133
225	0x3e96c076	0.2944371
226	0xbf781cdd	-0.9691904
227	0x3f836246	1.0264366
228	0xbf0bb7ec	-0.5457752
229	0xbf320f1e	-0.69554317
230	0x3e0e958b	0.13924234
231	0x3f0c64b0	0.54841137
232	0xbea0783a	-0.31341726
233	0x3e2dff57	0.16991936
234	0xbf6d6c41	-0.9274331
235	0x3f65f2a7	0.89823383
236	0xbeadfaf7	-0.33980533
237	0xbf39900c	-0.72485423
238	0x3eac164c	0.3361076
239	0x3f4512d3	0.7698185
240	0x3f1d14a8	0.61359644
241	0x3eb8ec76	0.36117905
242	0xbf50738c	-0.8142631
243	0x3f812901	1.0090638
244	0xbf44ddd5	-0.7690099
245	0xbf4427d3	-0.76623267
246	0x3f241b46	0.64104116
247	0x3e8921f1	0.26783708
248	0x3f0fec55	0.5621999
249	0xbe36ca5d	-0.17850633
250	0xbf3b8f1e	-0.73265254
251	0x3fa3d3ad	1.2798973
252	0xbf23b472	-0.6394721
253	0xbf7eacde	-0.99482524
254	0x3d86e363	0.06586339
255	0x3e428b66	0.18998489

decoder.op_decoder.weight f4 [67, 4]
0	0x3fe42b84	1.782578
1	0x3e23b6f4	0.1598776
2	0xbefa8fcd	-0.48937836
3	0x3e0d56df	0.1380267
4	0x3fa8de39	1.3192817
5	0x3e1f5535	0.15559848
6	0xbf0360cc	-0.51319575
7	0x3d825e91	0.06365693
8	0x3fd8e398	1.6944456
9	0xbf9e2eb5	-1.2358004
10	0xbefafb4d	-0.49019852
11	0x3e80311e	0.25037473
12	0x3e8cd632	0.27507168
13	0x3cc9c948	0.024632111
14	0x3f97135e	1.1802785
15	0x3f2d1940	0.67616653
16	0xbe30e94e	-0.17276499
17	0xbfc2e0c3	-1.5224842
18	0xbe2448b6	-0.16043362
19	0xbecdb502	-0.4017716
20	0x3fdcf850	1.7263279
21	0x3e0f9e96	0.1402534
22	0xbeff2b05	-0.4983751
23	0x3e005340	0.12531757
24	0x3fcf8895	1.6213557
25	0x3de3c56a	0.11121638
26	0xbeffdd4e	-0.4997353
27	0x3dd8064b	0.10548075
28	0xbe2dfbc4	-0.16990572
29	0x3ff2c2e6	1.8965728
30	0x3f2efe8d	0.68357164
31	0xbee844d3	-0.4536501
32	0x3eb42c1d	0.35189906
33	0x3e477d7f	0.19481467
34	0x3f122217	0.57083267
35	0x3f7f9022	0.99829304
36	0xbf813822	-1.0095255
37	0x3fb6bba4	1.4276013
38	0xbf2588f4	-0.646621
39	0x3bdfd4e1	0.006830797
40	0x3fe429d7	1.7825269
41	0x3e22b1a3	0.15888076
42	0xbef8abd1	-0.48568586
43	0x3e0d1b27	0.13779889
44	0xbe63754c	-0.22212714
45	0x3c91b607	0.017786993
46	0xbf6a8dc3	-0.9162256
47	0xbf218b53	-0.63103217
48	0x3edf2b57	0.43587753
49	0xbf5ca9b4	-0.86196446
50	0xc003f08f	-2.0615575
51	0xbd7d4fa8	-0.061843544
52	0x3f3675d3	0.71273535
53	0x3eff4288	0.49855447
54	0xbe9306a6	-0.2871601
55	0xbf6ae1a8	-0.91750574
56	0x3f3807f7	0.71887153
57	0x3c7f9bb5	0.015601088
58	0x3f0366e0	0.5132885
59	0x3f9463ac	1.1592917
60	0xbf04fe3e	-0.5195044
61	0x3ebbffc9	0.36718586
62	0xbf6ff37d	-0.9373091
63	0xbeb08b0f	-0.34481093
64	0x3e81a9b9	0.253248
65	0xbe8401c3	-0.25782594
66	0xbf93e996	-1.155566
67	0x3ede0749	0.43364933
68	0x3dba384f	0.09092771
69	0xbe31d354	-0.17365772
70	0xbf0150b6	-0.5051378
71	0x3f74e255	0.95657855
72	0x3ea6683a	0.32501394
73	0x3e7b12e3	0.24518923
74	0x3e049f35	0.12951358
75	0x3f93d144	1.1548238
76	0xbdc6c57b	-0.09705635
77	0xbedba534	-0.42899477
78	0x3d2141ae	0.039369278
79	0x3f761432	0.96124566
80	0x3ef01e76	0.4689824
81	0x3ef68e24	0.4815532
82	0x3f1b44db	0.6065194
83	0x3f8497f5	1.0358874
84	0x3fe59ebf	1.793907
85	0x3e31d767	0.17367326
86	0xbef87848	-0.48529267
87	0x3e111a3b	0.14170162
88	0xbf4c377d	-0.7977217
89	0x3f38fb87	0.722588
90	0xbea7f6de	-0.32805532
91	0x3fc484f3	1.5353073
92	0xbf88acb0	-1.06777
93	0x3f724b01	0.94645697
94	0x3e94d21a	0.29066545
95	0x3ec2a1ca	0.3801406
96	0x3fdbb65b	1.7165025
97	0x3df1bf54	0.11804071
98	0xbf0074b0	-0.5017805
99	0x3df7a588	0.120921195
100	0x3ed09002	0.4073487
101	0x3f0c3ab7	0.5477709
102	0x3f496bef	0.7868032
103	0x3f3b9665	0.7327636
104	0x3f5b261e	0.8560504
105	0xbe0e68d6	-0.13907179
106	0xbf840ba9	-1.0316058
107	0x3f7159ea	0.9427782
108	0x3fc99af8	1.5750418
109	0x3dee5ceb	0.116388164
110	0xbef97584	-0.4872247
111	0x3db8e86c	0.09028706
112	0x3ee93acb	0.45552668
113	0xbf4660a7	-0.7749123
114	0xbf89fab9	-1.077964
115	0x3f7a82f8	0.9785609
116	0x3f9e044b	1.234506
117	0xbf5aad23	-0.85420436
118	0xbfb1b912	-1.3884604
119	0x3efdc3f3	0.4956356
120	0x3fae0545	1.3595358
121	0xbe07281d	-0.13198896
122	0xbfa2e118	-1.2724943
123	0x3f5a4388	0.85259295
124	0x3fe48c6a	1.7855351
125	0x3e368c3f	0.17826937
126	0xbefc3d36	-0.4926545
127	0x3e100d09	0.14067473
128	0x3fd5720d	1.667543
129	0x3fa09ded	1.2548195
130	0xbf935346	-1.1509788
131	0x3f43162d	0.7620571
132	0x3f9de617	1.2335843
133	0x3f967cf8	1.1756887
134	0x3edde8a5	0.43341556
135	0x3f6bcd81	0.9211045
136	0x404335cb	3.0501583
137	0x3ff91d1f	1.9462012
138	0xbc7b1e2f	-0.015327021
139	0x3e1e7abc	0.15476507
140	0x3fb046ee	1.3771646
141	0x3ff6eebf	1.929161
142	0xbdbef5f6	-0.09324257
143	0x3e73c85f	0.23806904
144	0x403cfc80	2.9529114
145	0x4001104b	2.0166194
146	0xc003a54d	-2.0569642
147	0xbf2087f6	-0.6270746
148	0x3f99d4a2	1.2018015
149	0x3fae9cdc	1.364162
150	0xc0238e5e	-2.5555644
151	0xbf7b9d93	-0.98287314
152	0xbe9be52e	-0.30448288
153	0x3f7328ec	0.94984317
154	0xc029d0af	-2.653362
155	0xbf400ed2	-0.75022614
156	0x3ea9f0bc	0.33191478
157	0x3f8ab3c4	1.083611
158	0xbe865c73	-0.26242408
159	0xbf2830a4	-0.6569922
160	0xbf3f704f	-0.74780744
161	0x3fcfe698	1.6242247
162	0xbf929258	-1.145091
163	0xbeaf0827	-0.34185907
164	0xbf2c2d51	-0.6725665
165	0x3dd45200	0.10367203
166	0xbfe1fc94	-1.7655206
167	0x3eebf798	0.46087337
168	0x3fe5932a	1.7935536
169	0x3e46e08c	0.19421595
170	0xbefa9c7b	-0.4894751
171	0x3e12eecb	0.14348905
172	0x3fd5845a	1.6681015
173	0x3dee397c	0.11632058
174	0xbf017fa4	-0.5058539
175	0x3de2e048	0.110779345
176	0x3fe3b022	1.7788126
177	0x3e22a3e2	0.15882829
178	0xbefbe89f	-0.49200913
179	0x3e0deba0	0.13859415
180	0x3fe4c3c6	1.7872245
181	0x3e27721c	0.16352123
182	0xbef9391e	-0.4867639
183	0x3e0ea832	0.13931349
184	0x3fd8dbb8	1.6942053
185	0x3dc05df8	0.09392923
186	0xbf00bdcd	-0.50289613
187	0x3de9c707	0.114149146
188	0x3fe38fb2	1.7778227
189	0x3e28097a	0.16409865
190	0xbef95afe	-0.48702234
191	0x3e0dd393	0.1385024
192	0x3fe489be	1.7854536
193	0x3e367966	0.17819747
194	0xbef98261	-0.48732284
195	0x3e1050de	0.14093348
196	0x3fc9e0b0	1.5771694
197	0x3df389f3	0.11891546
198	0xbf04545d	-0.5169123
199	0x3dc2d476	0.0951318
200	0x3fe4d7ef	1.7878398
201	0x3e3e4cf2	0.1858404
202	0xbefaf7ec	-0.49017274
203	0x3e11ca6e	0.14237377
204	0x3fe1e8b1	1.7649137
205	0x3e1a6bba	0.15080157
206	0xbefdce1c	-0.4957131
207	0x3e0a0b56	0.13480887
208	0x3fdb3976	1.7126911
209	0x3dbe2272	0.09283914
210	0xbeffd514	-0.49967253
211	0x3deff603	0.11716845
212	0x3ce1fd93	0.027586734
213	0xbe9abf3b	-0.30224022
214	0x3f0effe5	0.55859214
215	0x3e918ea8	0.2842915
216	0x3e56dc2c	0.20982426
217	0xbf831669	-1.0241214
218	0x3f40f113	0.7536785
219	0xbf56dd70	-0.83931637
220	0x3fe57703	1.7926944
221	0x3e36f8e7	0.17868386
222	0xbef97d78	-0.48728538
223	0x3e115277	0.14191614
224	0x3e18b936	0.14914402
225	0xbea85c49	-0.32882908
226	0x3f34feb9	0.70701176
227	0x3e006695	0.12539132
228	0x3fdb1dca	1.7118466
229	0x3dfbf958	0.12303418
230	0xbf00b475	-0.50275356
231	0x3dfa479a	0.12220688
232	0xbf4b662b	-0.7945277
233	0x3e936d9a	0.28794557
234	0x3f1bc9aa	0.6085459
235	0x3f3b7397	0.7322325
236	0xbf123986	-0.57119024
237	0xbfa141cf	-1.2598208
238	0x3e4ab7f5	0.19796737
239	0xbf09b059	-0.5378471
240	0x3fe3ebfe	1.7806394
241	0x3e30676a	0.1722695
242	0xbef9491b	-0.48688588
243	0x3e0e19d3	0.13877039
244	0xbdf7bf51	-0.120970376
245	0xbf8e9109	-1.1138011
246	0x3f015e07	0.505341
247	0x3f11ed15	0.57002383
248	0xbf23c7d5	-0.63976794
249	0xbfad4a3c	-1.353828
250	0xbeb70c3b	-0.3575152
251	0x3ee207fe	0.44146723
252	0x3fdf92d7	1.7466687
253	0x3dfb7e90	0.12279999
254	0xbefa4be8	-0.48886037
255	0x3e01e48d	0.12684841
